Layer (type)                     Output Shape          Param #     Connected to                     
====================================================================================================
input_layer (InputLayer)         (None, 300, 300, 3)   0                                            
____________________________________________________________________________________________________
conv_layer0 (Conv2D)             (None, 300, 300, 32)  864         input_layer[0][0]                
____________________________________________________________________________________________________
batch_normalization_1 (BatchNorm (None, 300, 300, 32)  128         conv_layer0[0][0]                
____________________________________________________________________________________________________
activation_1 (Activation)        (None, 300, 300, 32)  0           batch_normalization_1[0][0]      
____________________________________________________________________________________________________
depthwise1-1 (DepthwiseConv2D)   (None, 300, 300, 32)  288         activation_1[0][0]               
____________________________________________________________________________________________________
batch_normalization_2 (BatchNorm (None, 300, 300, 32)  128         depthwise1-1[0][0]               
____________________________________________________________________________________________________
activation_2 (Activation)        (None, 300, 300, 32)  0           batch_normalization_2[0][0]      
____________________________________________________________________________________________________
depthwise1-2 (Conv2D)            (None, 300, 300, 64)  2048        activation_2[0][0]               
____________________________________________________________________________________________________
batch_normalization_3 (BatchNorm (None, 300, 300, 64)  256         depthwise1-2[0][0]               
____________________________________________________________________________________________________
activation_3 (Activation)        (None, 300, 300, 64)  0           batch_normalization_3[0][0]      
____________________________________________________________________________________________________
depthwise2-1 (DepthwiseConv2D)   (None, 300, 300, 64)  576         activation_3[0][0]               
____________________________________________________________________________________________________
batch_normalization_4 (BatchNorm (None, 300, 300, 64)  256         depthwise2-1[0][0]               
____________________________________________________________________________________________________
activation_4 (Activation)        (None, 300, 300, 64)  0           batch_normalization_4[0][0]      
____________________________________________________________________________________________________
depthwise2-2 (Conv2D)            (None, 300, 300, 128) 8192        activation_4[0][0]               
____________________________________________________________________________________________________
batch_normalization_5 (BatchNorm (None, 300, 300, 128) 512         depthwise2-2[0][0]               
____________________________________________________________________________________________________
activation_5 (Activation)        (None, 300, 300, 128) 0           batch_normalization_5[0][0]      
____________________________________________________________________________________________________
depthwise3-1 (DepthwiseConv2D)   (None, 300, 300, 128) 1152        activation_5[0][0]               
____________________________________________________________________________________________________
batch_normalization_6 (BatchNorm (None, 300, 300, 128) 512         depthwise3-1[0][0]               
____________________________________________________________________________________________________
activation_6 (Activation)        (None, 300, 300, 128) 0           batch_normalization_6[0][0]      
____________________________________________________________________________________________________
depthwise3-2 (Conv2D)            (None, 300, 300, 64)  8192        activation_6[0][0]               
____________________________________________________________________________________________________
batch_normalization_7 (BatchNorm (None, 300, 300, 64)  256         depthwise3-2[0][0]               
____________________________________________________________________________________________________
activation_7 (Activation)        (None, 300, 300, 64)  0           batch_normalization_7[0][0]      
____________________________________________________________________________________________________
depthwise4-1 (DepthwiseConv2D)   (None, 150, 150, 64)  576         activation_7[0][0]               
____________________________________________________________________________________________________
batch_normalization_8 (BatchNorm (None, 150, 150, 64)  256         depthwise4-1[0][0]               
____________________________________________________________________________________________________
activation_8 (Activation)        (None, 150, 150, 64)  0           batch_normalization_8[0][0]      
____________________________________________________________________________________________________
depthwise4-2 (Conv2D)            (None, 150, 150, 128) 8192        activation_8[0][0]               
____________________________________________________________________________________________________
batch_normalization_9 (BatchNorm (None, 150, 150, 128) 512         depthwise4-2[0][0]               
____________________________________________________________________________________________________
activation_9 (Activation)        (None, 150, 150, 128) 0           batch_normalization_9[0][0]      
____________________________________________________________________________________________________
depthwise5-1 (DepthwiseConv2D)   (None, 150, 150, 128) 1152        activation_9[0][0]               
____________________________________________________________________________________________________
batch_normalization_10 (BatchNor (None, 150, 150, 128) 512         depthwise5-1[0][0]               
____________________________________________________________________________________________________
activation_10 (Activation)       (None, 150, 150, 128) 0           batch_normalization_10[0][0]     
____________________________________________________________________________________________________
depthwise5-2 (Conv2D)            (None, 150, 150, 256) 32768       activation_10[0][0]              
____________________________________________________________________________________________________
batch_normalization_11 (BatchNor (None, 150, 150, 256) 1024        depthwise5-2[0][0]               
____________________________________________________________________________________________________
activation_11 (Activation)       (None, 150, 150, 256) 0           batch_normalization_11[0][0]     
____________________________________________________________________________________________________
depthwise6-1 (DepthwiseConv2D)   (None, 150, 150, 256) 2304        activation_11[0][0]              
____________________________________________________________________________________________________
batch_normalization_12 (BatchNor (None, 150, 150, 256) 1024        depthwise6-1[0][0]               
____________________________________________________________________________________________________
activation_12 (Activation)       (None, 150, 150, 256) 0           batch_normalization_12[0][0]     
____________________________________________________________________________________________________
depthwise6-2 (Conv2D)            (None, 150, 150, 128) 32768       activation_12[0][0]              
____________________________________________________________________________________________________
batch_normalization_13 (BatchNor (None, 150, 150, 128) 512         depthwise6-2[0][0]               
____________________________________________________________________________________________________
activation_13 (Activation)       (None, 150, 150, 128) 0           batch_normalization_13[0][0]     
____________________________________________________________________________________________________
depthwise7-1 (DepthwiseConv2D)   (None, 75, 75, 128)   1152        activation_13[0][0]              
____________________________________________________________________________________________________
batch_normalization_14 (BatchNor (None, 75, 75, 128)   512         depthwise7-1[0][0]               
____________________________________________________________________________________________________
activation_14 (Activation)       (None, 75, 75, 128)   0           batch_normalization_14[0][0]     
____________________________________________________________________________________________________
depthwise7-2 (Conv2D)            (None, 75, 75, 256)   32768       activation_14[0][0]              
____________________________________________________________________________________________________
batch_normalization_15 (BatchNor (None, 75, 75, 256)   1024        depthwise7-2[0][0]               
____________________________________________________________________________________________________
activation_15 (Activation)       (None, 75, 75, 256)   0           batch_normalization_15[0][0]     
____________________________________________________________________________________________________
depthwise8-1 (DepthwiseConv2D)   (None, 75, 75, 256)   2304        activation_15[0][0]              
____________________________________________________________________________________________________
batch_normalization_16 (BatchNor (None, 75, 75, 256)   1024        depthwise8-1[0][0]               
____________________________________________________________________________________________________
activation_16 (Activation)       (None, 75, 75, 256)   0           batch_normalization_16[0][0]     
____________________________________________________________________________________________________
depthwise8-2 (Conv2D)            (None, 75, 75, 512)   131072      activation_16[0][0]              
____________________________________________________________________________________________________
batch_normalization_17 (BatchNor (None, 75, 75, 512)   2048        depthwise8-2[0][0]               
____________________________________________________________________________________________________
activation_17 (Activation)       (None, 75, 75, 512)   0           batch_normalization_17[0][0]     
____________________________________________________________________________________________________
depthwise9-1 (DepthwiseConv2D)   (None, 75, 75, 512)   4608        activation_17[0][0]              
____________________________________________________________________________________________________
batch_normalization_18 (BatchNor (None, 75, 75, 512)   2048        depthwise9-1[0][0]               
____________________________________________________________________________________________________
activation_18 (Activation)       (None, 75, 75, 512)   0           batch_normalization_18[0][0]     
____________________________________________________________________________________________________
depthwise9-2 (Conv2D)            (None, 75, 75, 256)   131072      activation_18[0][0]              
____________________________________________________________________________________________________
batch_normalization_19 (BatchNor (None, 75, 75, 256)   1024        depthwise9-2[0][0]               
____________________________________________________________________________________________________
activation_19 (Activation)       (None, 75, 75, 256)   0           batch_normalization_19[0][0]     
____________________________________________________________________________________________________
depthwise10-1 (DepthwiseConv2D)  (None, 38, 38, 256)   2304        activation_19[0][0]              
____________________________________________________________________________________________________
batch_normalization_20 (BatchNor (None, 38, 38, 256)   1024        depthwise10-1[0][0]              
____________________________________________________________________________________________________
activation_20 (Activation)       (None, 38, 38, 256)   0           batch_normalization_20[0][0]     
____________________________________________________________________________________________________
depthwise10-2 (Conv2D)           (None, 38, 38, 512)   131072      activation_20[0][0]              
____________________________________________________________________________________________________
batch_normalization_21 (BatchNor (None, 38, 38, 512)   2048        depthwise10-2[0][0]              
____________________________________________________________________________________________________
activation_21 (Activation)       (None, 38, 38, 512)   0           batch_normalization_21[0][0]     
____________________________________________________________________________________________________
depthwise11-1 (DepthwiseConv2D)  (None, 38, 38, 512)   4608        activation_21[0][0]              
____________________________________________________________________________________________________
batch_normalization_22 (BatchNor (None, 38, 38, 512)   2048        depthwise11-1[0][0]              
____________________________________________________________________________________________________
activation_22 (Activation)       (None, 38, 38, 512)   0           batch_normalization_22[0][0]     
____________________________________________________________________________________________________
depthwise11-2 (Conv2D)           (None, 38, 38, 256)   131072      activation_22[0][0]              
____________________________________________________________________________________________________
batch_normalization_23 (BatchNor (None, 38, 38, 256)   1024        depthwise11-2[0][0]              
____________________________________________________________________________________________________
activation_23 (Activation)       (None, 38, 38, 256)   0           batch_normalization_23[0][0]     
____________________________________________________________________________________________________
depthwise12-1 (DepthwiseConv2D)  (None, 38, 38, 256)   2304        activation_23[0][0]              
____________________________________________________________________________________________________
batch_normalization_24 (BatchNor (None, 38, 38, 256)   1024        depthwise12-1[0][0]              
____________________________________________________________________________________________________
activation_24 (Activation)       (None, 38, 38, 256)   0           batch_normalization_24[0][0]     
____________________________________________________________________________________________________
depthwise12-2 (Conv2D)           (None, 38, 38, 512)   131072      activation_24[0][0]              
____________________________________________________________________________________________________
batch_normalization_25 (BatchNor (None, 38, 38, 512)   2048        depthwise12-2[0][0]              
____________________________________________________________________________________________________
activation_25 (Activation)       (None, 38, 38, 512)   0           batch_normalization_25[0][0]     
____________________________________________________________________________________________________
depthwise13-1 (DepthwiseConv2D)  (None, 19, 19, 512)   4608        activation_25[0][0]              
____________________________________________________________________________________________________
batch_normalization_26 (BatchNor (None, 19, 19, 512)   2048        depthwise13-1[0][0]              
____________________________________________________________________________________________________
activation_26 (Activation)       (None, 19, 19, 512)   0           batch_normalization_26[0][0]     
____________________________________________________________________________________________________
depthwise13-2 (Conv2D)           (None, 19, 19, 1024)  524288      activation_26[0][0]              
____________________________________________________________________________________________________
batch_normalization_27 (BatchNor (None, 19, 19, 1024)  4096        depthwise13-2[0][0]              
____________________________________________________________________________________________________
activation_27 (Activation)       (None, 19, 19, 1024)  0           batch_normalization_27[0][0]     
____________________________________________________________________________________________________
depthwise14-1 (DepthwiseConv2D)  (None, 19, 19, 1024)  9216        activation_27[0][0]              
____________________________________________________________________________________________________
batch_normalization_28 (BatchNor (None, 19, 19, 1024)  4096        depthwise14-1[0][0]              
____________________________________________________________________________________________________
activation_28 (Activation)       (None, 19, 19, 1024)  0           batch_normalization_28[0][0]     
____________________________________________________________________________________________________
depthwise14-2 (Conv2D)           (None, 19, 19, 512)   524288      activation_28[0][0]              
____________________________________________________________________________________________________
batch_normalization_29 (BatchNor (None, 19, 19, 512)   2048        depthwise14-2[0][0]              
____________________________________________________________________________________________________
activation_29 (Activation)       (None, 19, 19, 512)   0           batch_normalization_29[0][0]     
____________________________________________________________________________________________________
depthwise15-1 (DepthwiseConv2D)  (None, 19, 19, 512)   4608        activation_29[0][0]              
____________________________________________________________________________________________________
batch_normalization_30 (BatchNor (None, 19, 19, 512)   2048        depthwise15-1[0][0]              
____________________________________________________________________________________________________
activation_30 (Activation)       (None, 19, 19, 512)   0           batch_normalization_30[0][0]     
____________________________________________________________________________________________________
depthwise15-2 (Conv2D)           (None, 19, 19, 1024)  524288      activation_30[0][0]              
____________________________________________________________________________________________________
batch_normalization_31 (BatchNor (None, 19, 19, 1024)  4096        depthwise15-2[0][0]              
____________________________________________________________________________________________________
activation_31 (Activation)       (None, 19, 19, 1024)  0           batch_normalization_31[0][0]     
____________________________________________________________________________________________________
depthwise16-1 (DepthwiseConv2D)  (None, 19, 19, 1024)  9216        activation_31[0][0]              
____________________________________________________________________________________________________
batch_normalization_32 (BatchNor (None, 19, 19, 1024)  4096        depthwise16-1[0][0]              
____________________________________________________________________________________________________
activation_32 (Activation)       (None, 19, 19, 1024)  0           batch_normalization_32[0][0]     
____________________________________________________________________________________________________
depthwise16-2 (Conv2D)           (None, 19, 19, 512)   524288      activation_32[0][0]              
____________________________________________________________________________________________________
batch_normalization_33 (BatchNor (None, 19, 19, 512)   2048        depthwise16-2[0][0]              
____________________________________________________________________________________________________
activation_33 (Activation)       (None, 19, 19, 512)   0           batch_normalization_33[0][0]     
____________________________________________________________________________________________________
depthwise17-1 (DepthwiseConv2D)  (None, 19, 19, 512)   4608        activation_33[0][0]              
____________________________________________________________________________________________________
batch_normalization_34 (BatchNor (None, 19, 19, 512)   2048        depthwise17-1[0][0]              
____________________________________________________________________________________________________
activation_34 (Activation)       (None, 19, 19, 512)   0           batch_normalization_34[0][0]     
____________________________________________________________________________________________________
depthwise17-2 (Conv2D)           (None, 19, 19, 1024)  524288      activation_34[0][0]              
____________________________________________________________________________________________________
batch_normalization_35 (BatchNor (None, 19, 19, 1024)  4096        depthwise17-2[0][0]              
____________________________________________________________________________________________________
activation_35 (Activation)       (None, 19, 19, 1024)  0           batch_normalization_35[0][0]     
____________________________________________________________________________________________________
depthwise18-1 (DepthwiseConv2D)  (None, 10, 10, 1024)  9216        activation_35[0][0]              
____________________________________________________________________________________________________
batch_normalization_36 (BatchNor (None, 10, 10, 1024)  4096        depthwise18-1[0][0]              
____________________________________________________________________________________________________
activation_36 (Activation)       (None, 10, 10, 1024)  0           batch_normalization_36[0][0]     
____________________________________________________________________________________________________
depthwise18-2 (Conv2D)           (None, 10, 10, 1024)  1048576     activation_36[0][0]              
____________________________________________________________________________________________________
batch_normalization_37 (BatchNor (None, 10, 10, 1024)  4096        depthwise18-2[0][0]              
____________________________________________________________________________________________________
activation_37 (Activation)       (None, 10, 10, 1024)  0           batch_normalization_37[0][0]     
____________________________________________________________________________________________________
depthwise19-1 (DepthwiseConv2D)  (None, 10, 10, 1024)  9216        activation_37[0][0]              
____________________________________________________________________________________________________
batch_normalization_38 (BatchNor (None, 10, 10, 1024)  4096        depthwise19-1[0][0]              
____________________________________________________________________________________________________
activation_38 (Activation)       (None, 10, 10, 1024)  0           batch_normalization_38[0][0]     
____________________________________________________________________________________________________
depthwise19-2 (Conv2D)           (None, 10, 10, 1024)  1048576     activation_38[0][0]              
____________________________________________________________________________________________________
batch_normalization_39 (BatchNor (None, 10, 10, 1024)  4096        depthwise19-2[0][0]              
____________________________________________________________________________________________________
activation_39 (Activation)       (None, 10, 10, 1024)  0           batch_normalization_39[0][0]     
____________________________________________________________________________________________________
layer20_1 (Conv2D)               (None, 10, 10, 256)   262400      activation_39[0][0]              
____________________________________________________________________________________________________
layer20 (Conv2D)                 (None, 5, 5, 512)     1180160     layer20_1[0][0]                  
____________________________________________________________________________________________________
layer21_1 (Conv2D)               (None, 5, 5, 128)     65664       layer20[0][0]                    
____________________________________________________________________________________________________
layer21 (Conv2D)                 (None, 3, 3, 256)     295168      layer21_1[0][0]                  
____________________________________________________________________________________________________
layer22_1 (Conv2D)               (None, 3, 3, 128)     32896       layer21[0][0]                    
____________________________________________________________________________________________________
layer22 (Conv2D)                 (None, 1, 1, 256)     295168      layer22_1[0][0]                  
____________________________________________________________________________________________________
l2_normalization_1 (L2Normalizat (None, 38, 38, 512)   512         activation_25[0][0]              
____________________________________________________________________________________________________
l2_normalization_2 (L2Normalizat (None, 19, 19, 1024)  1024        activation_35[0][0]              
____________________________________________________________________________________________________
l2_normalization_3 (L2Normalizat (None, 10, 10, 1024)  1024        activation_39[0][0]              
____________________________________________________________________________________________________
l2_normalization_4 (L2Normalizat (None, 5, 5, 512)     512         layer20[0][0]                    
____________________________________________________________________________________________________
l2_normalization_5 (L2Normalizat (None, 3, 3, 256)     256         layer21[0][0]                    
____________________________________________________________________________________________________
l2_normalization_6 (L2Normalizat (None, 1, 1, 256)     256         layer22[0][0]                    
____________________________________________________________________________________________________
conv2d_1 (Conv2D)                (None, 38, 38, 324)   1493316     l2_normalization_1[0][0]         
____________________________________________________________________________________________________
conv2d_2 (Conv2D)                (None, 19, 19, 486)   4479462     l2_normalization_2[0][0]         
____________________________________________________________________________________________________
conv2d_3 (Conv2D)                (None, 10, 10, 486)   4479462     l2_normalization_3[0][0]         
____________________________________________________________________________________________________
conv2d_4 (Conv2D)                (None, 5, 5, 486)     2239974     l2_normalization_4[0][0]         
____________________________________________________________________________________________________
conv2d_5 (Conv2D)                (None, 3, 3, 324)     746820      l2_normalization_5[0][0]         
____________________________________________________________________________________________________
conv2d_6 (Conv2D)                (None, 1, 1, 324)     746820      l2_normalization_6[0][0]         
____________________________________________________________________________________________________
conv2d_7 (Conv2D)                (None, 38, 38, 16)    73744       l2_normalization_1[0][0]         
____________________________________________________________________________________________________
conv2d_8 (Conv2D)                (None, 19, 19, 24)    221208      l2_normalization_2[0][0]         
____________________________________________________________________________________________________
conv2d_9 (Conv2D)                (None, 10, 10, 24)    221208      l2_normalization_3[0][0]         
____________________________________________________________________________________________________
conv2d_10 (Conv2D)               (None, 5, 5, 24)      110616      l2_normalization_4[0][0]         
____________________________________________________________________________________________________
conv2d_11 (Conv2D)               (None, 3, 3, 16)      36880       l2_normalization_5[0][0]         
____________________________________________________________________________________________________
conv2d_12 (Conv2D)               (None, 1, 1, 16)      36880       l2_normalization_6[0][0]         
____________________________________________________________________________________________________
reshape_1 (Reshape)              (None, 5776, 81)      0           conv2d_1[0][0]                   
____________________________________________________________________________________________________
reshape_2 (Reshape)              (None, 2166, 81)      0           conv2d_2[0][0]                   
____________________________________________________________________________________________________
reshape_3 (Reshape)              (None, 600, 81)       0           conv2d_3[0][0]                   
____________________________________________________________________________________________________
reshape_4 (Reshape)              (None, 150, 81)       0           conv2d_4[0][0]                   
____________________________________________________________________________________________________
reshape_5 (Reshape)              (None, 36, 81)        0           conv2d_5[0][0]                   
____________________________________________________________________________________________________
reshape_6 (Reshape)              (None, 4, 81)         0           conv2d_6[0][0]                   
____________________________________________________________________________________________________
anchor_boxes_1 (AnchorBoxes)     (None, 38, 38, 4, 8)  0           conv2d_7[0][0]                   
____________________________________________________________________________________________________
anchor_boxes_2 (AnchorBoxes)     (None, 19, 19, 6, 8)  0           conv2d_8[0][0]                   
____________________________________________________________________________________________________
anchor_boxes_3 (AnchorBoxes)     (None, 10, 10, 6, 8)  0           conv2d_9[0][0]                   
____________________________________________________________________________________________________
anchor_boxes_4 (AnchorBoxes)     (None, 5, 5, 6, 8)    0           conv2d_10[0][0]                  
____________________________________________________________________________________________________
anchor_boxes_5 (AnchorBoxes)     (None, 3, 3, 4, 8)    0           conv2d_11[0][0]                  
____________________________________________________________________________________________________
anchor_boxes_6 (AnchorBoxes)     (None, 1, 1, 4, 8)    0           conv2d_12[0][0]                  
____________________________________________________________________________________________________
mbox_conf (Concatenate)          (None, 8732, 81)      0           reshape_1[0][0]                  
                                                                   reshape_2[0][0]                  
                                                                   reshape_3[0][0]                  
                                                                   reshape_4[0][0]                  
                                                                   reshape_5[0][0]                  
                                                                   reshape_6[0][0]                  
____________________________________________________________________________________________________
reshape_7 (Reshape)              (None, 5776, 4)       0           conv2d_7[0][0]                   
____________________________________________________________________________________________________
reshape_8 (Reshape)              (None, 2166, 4)       0           conv2d_8[0][0]                   
____________________________________________________________________________________________________
reshape_9 (Reshape)              (None, 600, 4)        0           conv2d_9[0][0]                   
____________________________________________________________________________________________________
reshape_10 (Reshape)             (None, 150, 4)        0           conv2d_10[0][0]                  
____________________________________________________________________________________________________
reshape_11 (Reshape)             (None, 36, 4)         0           conv2d_11[0][0]                  
____________________________________________________________________________________________________
reshape_12 (Reshape)             (None, 4, 4)          0           conv2d_12[0][0]                  
____________________________________________________________________________________________________
reshape_13 (Reshape)             (None, 5776, 8)       0           anchor_boxes_1[0][0]             
____________________________________________________________________________________________________
reshape_14 (Reshape)             (None, 2166, 8)       0           anchor_boxes_2[0][0]             
____________________________________________________________________________________________________
reshape_15 (Reshape)             (None, 600, 8)        0           anchor_boxes_3[0][0]             
____________________________________________________________________________________________________
reshape_16 (Reshape)             (None, 150, 8)        0           anchor_boxes_4[0][0]             
____________________________________________________________________________________________________
reshape_17 (Reshape)             (None, 36, 8)         0           anchor_boxes_5[0][0]             
____________________________________________________________________________________________________
reshape_18 (Reshape)             (None, 4, 8)          0           anchor_boxes_6[0][0]             
____________________________________________________________________________________________________
mbox_conf_softmax (Activation)   (None, 8732, 81)      0           mbox_conf[0][0]                  
____________________________________________________________________________________________________
mbox_loc (Concatenate)           (None, 8732, 4)       0           reshape_7[0][0]                  
                                                                   reshape_8[0][0]                  
                                                                   reshape_9[0][0]                  
                                                                   reshape_10[0][0]                 
                                                                   reshape_11[0][0]                 
                                                                   reshape_12[0][0]                 
____________________________________________________________________________________________________
mbox_priorbox (Concatenate)      (None, 8732, 8)       0           reshape_13[0][0]                 
                                                                   reshape_14[0][0]                 
                                                                   reshape_15[0][0]                 
                                                                   reshape_16[0][0]                 
                                                                   reshape_17[0][0]                 
                                                                   reshape_18[0][0]                 
____________________________________________________________________________________________________
predictions (Concatenate)        (None, 8732, 93)      0           mbox_conf_softmax[0][0]          
                                                                   mbox_loc[0][0]                   
                                                                   mbox_priorbox[0][0]              
====================================================================================================
Total params: 22,665,078
Trainable params: 22,630,134
…
