_________________________________________________________________
Layer (type)                 Output Shape              Param #   
=================================================================
input_1 (InputLayer)         (None, 224, 224, 3)       0         
_________________________________________________________________
conv2d_1 (Conv2D)            (None, 112, 112, 32)      864       
_________________________________________________________________
batch_normalization_1 (Batch (None, 112, 112, 32)      128       
_________________________________________________________________
activation_1 (Activation)    (None, 112, 112, 32)      0         
_________________________________________________________________
depthwise_conv2d_1 (Depthwis (None, 112, 112, 32)      288       
_________________________________________________________________
batch_normalization_2 (Batch (None, 112, 112, 32)      128       
_________________________________________________________________
activation_2 (Activation)    (None, 112, 112, 32)      0         
_________________________________________________________________
conv2d_2 (Conv2D)            (None, 112, 112, 64)      2048      
_________________________________________________________________
batch_normalization_3 (Batch (None, 112, 112, 64)      256       
_________________________________________________________________
activation_3 (Activation)    (None, 112, 112, 64)      0         
_________________________________________________________________
depthwise_conv2d_2 (Depthwis (None, 56, 56, 64)        576       
_________________________________________________________________
batch_normalization_4 (Batch (None, 56, 56, 64)        256       
_________________________________________________________________
activation_4 (Activation)    (None, 56, 56, 64)        0         
_________________________________________________________________
conv2d_3 (Conv2D)            (None, 56, 56, 128)       8192      
_________________________________________________________________
batch_normalization_5 (Batch (None, 56, 56, 128)       512       
_________________________________________________________________
activation_5 (Activation)    (None, 56, 56, 128)       0         
_________________________________________________________________
depthwise_conv2d_3 (Depthwis (None, 56, 56, 128)       1152      
_________________________________________________________________
batch_normalization_6 (Batch (None, 56, 56, 128)       512       
_________________________________________________________________
activation_6 (Activation)    (None, 56, 56, 128)       0         
_________________________________________________________________
conv2d_4 (Conv2D)            (None, 56, 56, 128)       16384     
_________________________________________________________________
batch_normalization_7 (Batch (None, 56, 56, 128)       512       
_________________________________________________________________
activation_7 (Activation)    (None, 56, 56, 128)       0         
_________________________________________________________________
depthwise_conv2d_4 (Depthwis (None, 28, 28, 128)       1152      
_________________________________________________________________
batch_normalization_8 (Batch (None, 28, 28, 128)       512       
_________________________________________________________________
activation_8 (Activation)    (None, 28, 28, 128)       0         
_________________________________________________________________
conv2d_5 (Conv2D)            (None, 28, 28, 256)       32768     
_________________________________________________________________
batch_normalization_9 (Batch (None, 28, 28, 256)       1024      
_________________________________________________________________
activation_9 (Activation)    (None, 28, 28, 256)       0         
_________________________________________________________________
depthwise_conv2d_5 (Depthwis (None, 28, 28, 256)       2304      
_________________________________________________________________
batch_normalization_10 (Batc (None, 28, 28, 256)       1024      
_________________________________________________________________
activation_10 (Activation)   (None, 28, 28, 256)       0         
_________________________________________________________________
conv2d_6 (Conv2D)            (None, 28, 28, 256)       65536     
_________________________________________________________________
batch_normalization_11 (Batc (None, 28, 28, 256)       1024      
_________________________________________________________________
activation_11 (Activation)   (None, 28, 28, 256)       0         
_________________________________________________________________
depthwise_conv2d_6 (Depthwis (None, 14, 14, 256)       2304      
_________________________________________________________________
batch_normalization_12 (Batc (None, 14, 14, 256)       1024      
_________________________________________________________________
activation_12 (Activation)   (None, 14, 14, 256)       0         
_________________________________________________________________
conv2d_7 (Conv2D)            (None, 14, 14, 512)       131072    
_________________________________________________________________
batch_normalization_13 (Batc (None, 14, 14, 512)       2048      
_________________________________________________________________
activation_13 (Activation)   (None, 14, 14, 512)       0         
_________________________________________________________________
depthwise_conv2d_7 (Depthwis (None, 14, 14, 512)       4608      
_________________________________________________________________
batch_normalization_14 (Batc (None, 14, 14, 512)       2048      
_________________________________________________________________
activation_14 (Activation)   (None, 14, 14, 512)       0         
_________________________________________________________________
conv2d_8 (Conv2D)            (None, 14, 14, 512)       262144    
_________________________________________________________________
batch_normalization_15 (Batc (None, 14, 14, 512)       2048      
_________________________________________________________________
activation_15 (Activation)   (None, 14, 14, 512)       0         
_________________________________________________________________
depthwise_conv2d_8 (Depthwis (None, 14, 14, 512)       4608      
_________________________________________________________________
batch_normalization_16 (Batc (None, 14, 14, 512)       2048      
_________________________________________________________________
activation_16 (Activation)   (None, 14, 14, 512)       0         
_________________________________________________________________
conv2d_9 (Conv2D)            (None, 14, 14, 512)       262144    
_________________________________________________________________
batch_normalization_17 (Batc (None, 14, 14, 512)       2048      
_________________________________________________________________
activation_17 (Activation)   (None, 14, 14, 512)       0         
_________________________________________________________________
depthwise_conv2d_9 (Depthwis (None, 14, 14, 512)       4608      
_________________________________________________________________
batch_normalization_18 (Batc (None, 14, 14, 512)       2048      
_________________________________________________________________
activation_18 (Activation)   (None, 14, 14, 512)       0         
_________________________________________________________________
conv2d_10 (Conv2D)           (None, 14, 14, 512)       262144    
_________________________________________________________________
batch_normalization_19 (Batc (None, 14, 14, 512)       2048      
_________________________________________________________________
activation_19 (Activation)   (None, 14, 14, 512)       0         
_________________________________________________________________
depthwise_conv2d_10 (Depthwi (None, 14, 14, 512)       4608      
_________________________________________________________________
batch_normalization_20 (Batc (None, 14, 14, 512)       2048      
_________________________________________________________________
activation_20 (Activation)   (None, 14, 14, 512)       0         
_________________________________________________________________
conv2d_11 (Conv2D)           (None, 14, 14, 512)       262144    
_________________________________________________________________
batch_normalization_21 (Batc (None, 14, 14, 512)       2048      
_________________________________________________________________
activation_21 (Activation)   (None, 14, 14, 512)       0         
_________________________________________________________________
depthwise_conv2d_11 (Depthwi (None, 14, 14, 512)       4608      
_________________________________________________________________
batch_normalization_22 (Batc (None, 14, 14, 512)       2048      
_________________________________________________________________
activation_22 (Activation)   (None, 14, 14, 512)       0         
_________________________________________________________________
conv2d_12 (Conv2D)           (None, 14, 14, 512)       262144    
_________________________________________________________________
batch_normalization_23 (Batc (None, 14, 14, 512)       2048      
_________________________________________________________________
activation_23 (Activation)   (None, 14, 14, 512)       0         
_________________________________________________________________
depthwise_conv2d_12 (Depthwi (None, 7, 7, 512)         4608      
_________________________________________________________________
batch_normalization_24 (Batc (None, 7, 7, 512)         2048      
_________________________________________________________________
activation_24 (Activation)   (None, 7, 7, 512)         0         
_________________________________________________________________
conv2d_13 (Conv2D)           (None, 7, 7, 1024)        524288    
_________________________________________________________________
batch_normalization_25 (Batc (None, 7, 7, 1024)        4096      
_________________________________________________________________
activation_25 (Activation)   (None, 7, 7, 1024)        0         
_________________________________________________________________
depthwise_conv2d_13 (Depthwi (None, 7, 7, 1024)        9216      
_________________________________________________________________
batch_normalization_26 (Batc (None, 7, 7, 1024)        4096      
_________________________________________________________________
activation_26 (Activation)   (None, 7, 7, 1024)        0         
_________________________________________________________________
conv2d_14 (Conv2D)           (None, 7, 7, 1024)        1048576   
_________________________________________________________________
batch_normalization_27 (Batc (None, 7, 7, 1024)        4096      
_________________________________________________________________
activation_27 (Activation)   (None, 7, 7, 1024)        0         
_________________________________________________________________
global_average_pooling2d_1 ( (None, 1024)              0         
_________________________________________________________________
dense_1 (Dense)              (None, 1000)              1025000   
=================================================================
Total params: 4,253,864
Trainable params: 4,231,976
Non-trainable params: 21,888
