Layer (type)                 Output Shape              Param #   
=================================================================
input_1 (InputLayer)         (None, 416, 416, 3)       0         
_________________________________________________________________
conv_1 (Conv2D)              (None, 416, 416, 16)      432       
_________________________________________________________________
norm_1 (BatchNormalization)  (None, 416, 416, 16)      64        
_________________________________________________________________
leaky_re_lu_1 (LeakyReLU)    (None, 416, 416, 16)      0         
_________________________________________________________________
max_pooling2d_1 (MaxPooling2 (None, 208, 208, 16)      0         
_________________________________________________________________
conv_2 (Conv2D)              (None, 208, 208, 32)      4608      
_________________________________________________________________
norm_2 (BatchNormalization)  (None, 208, 208, 32)      128       
_________________________________________________________________
leaky_re_lu_2 (LeakyReLU)    (None, 208, 208, 32)      0         
_________________________________________________________________
max_pooling2d_2 (MaxPooling2 (None, 104, 104, 32)      0         
_________________________________________________________________
conv_3 (Conv2D)              (None, 104, 104, 64)      18432     
_________________________________________________________________
norm_3 (BatchNormalization)  (None, 104, 104, 64)      256       
_________________________________________________________________
leaky_re_lu_3 (LeakyReLU)    (None, 104, 104, 64)      0         
_________________________________________________________________
max_pooling2d_3 (MaxPooling2 (None, 52, 52, 64)        0         
_________________________________________________________________
conv_4 (Conv2D)              (None, 52, 52, 128)       73728     
_________________________________________________________________
norm_4 (BatchNormalization)  (None, 52, 52, 128)       512       
_________________________________________________________________
leaky_re_lu_4 (LeakyReLU)    (None, 52, 52, 128)       0         
_________________________________________________________________
max_pooling2d_4 (MaxPooling2 (None, 26, 26, 128)       0         
_________________________________________________________________
conv_5 (Conv2D)              (None, 26, 26, 256)       294912    
_________________________________________________________________
norm_5 (BatchNormalization)  (None, 26, 26, 256)       1024      
_________________________________________________________________
leaky_re_lu_5 (LeakyReLU)    (None, 26, 26, 256)       0         
_________________________________________________________________
max_pooling2d_5 (MaxPooling2 (None, 13, 13, 256)       0         
_________________________________________________________________
conv_6 (Conv2D)              (None, 13, 13, 512)       1179648   
_________________________________________________________________
norm_6 (BatchNormalization)  (None, 13, 13, 512)       2048      
_________________________________________________________________
leaky_re_lu_6 (LeakyReLU)    (None, 13, 13, 512)       0         
_________________________________________________________________
max_pooling2d_6 (MaxPooling2 (None, 13, 13, 512)       0         
_________________________________________________________________
conv_7 (Conv2D)              (None, 13, 13, 1024)      4718592   
_________________________________________________________________
norm_7 (BatchNormalization)  (None, 13, 13, 1024)      4096      
_________________________________________________________________
leaky_re_lu_7 (LeakyReLU)    (None, 13, 13, 1024)      0         
_________________________________________________________________
conv_8 (Conv2D)              (None, 13, 13, 1024)      9437184   
_________________________________________________________________
norm_8 (BatchNormalization)  (None, 13, 13, 1024)      4096      
_________________________________________________________________
leaky_re_lu_8 (LeakyReLU)    (None, 13, 13, 1024)      0         
_________________________________________________________________
conv_9 (Conv2D)              (None, 13, 13, 425)       435625    
=================================================================
Total params: 16,175,385
Trainable params: 16,169,273
Non-trainable params: 6,112
_______________________________
