Layer (type)                     Output Shape          Param #     Connected to                     
====================================================================================================
input_1 (InputLayer)             (None, 300, 300, 3)   0                                            
____________________________________________________________________________________________________
lambda1 (Lambda)                 (None, 300, 300, 3)   0           input_1[0][0]                    
____________________________________________________________________________________________________
conv1_1 (Conv2D)                 (None, 300, 300, 64)  1792        lambda1[0][0]                    
____________________________________________________________________________________________________
conv1_2 (Conv2D)                 (None, 300, 300, 64)  36928       conv1_1[0][0]                    
____________________________________________________________________________________________________
pool1 (MaxPooling2D)             (None, 150, 150, 64)  0           conv1_2[0][0]                    
____________________________________________________________________________________________________
conv2_1 (Conv2D)                 (None, 150, 150, 128) 73856       pool1[0][0]                      
____________________________________________________________________________________________________
conv2_2 (Conv2D)                 (None, 150, 150, 128) 147584      conv2_1[0][0]                    
____________________________________________________________________________________________________
pool2 (MaxPooling2D)             (None, 75, 75, 128)   0           conv2_2[0][0]                    
____________________________________________________________________________________________________
conv3_1 (Conv2D)                 (None, 75, 75, 256)   295168      pool2[0][0]                      
____________________________________________________________________________________________________
conv3_2 (Conv2D)                 (None, 75, 75, 256)   590080      conv3_1[0][0]                    
____________________________________________________________________________________________________
conv3_3 (Conv2D)                 (None, 75, 75, 256)   590080      conv3_2[0][0]                    
____________________________________________________________________________________________________
pool3 (MaxPooling2D)             (None, 37, 37, 256)   0           conv3_3[0][0]                    
____________________________________________________________________________________________________
conv4_1 (Conv2D)                 (None, 37, 37, 512)   1180160     pool3[0][0]                      
____________________________________________________________________________________________________
conv4_2 (Conv2D)                 (None, 37, 37, 512)   2359808     conv4_1[0][0]                    
____________________________________________________________________________________________________
conv4_3 (Conv2D)                 (None, 37, 37, 512)   2359808     conv4_2[0][0]                    
____________________________________________________________________________________________________
pool4 (MaxPooling2D)             (None, 18, 18, 512)   0           conv4_3[0][0]                    
____________________________________________________________________________________________________
conv5_1 (Conv2D)                 (None, 18, 18, 512)   2359808     pool4[0][0]                      
____________________________________________________________________________________________________
conv5_2 (Conv2D)                 (None, 18, 18, 512)   2359808     conv5_1[0][0]                    
____________________________________________________________________________________________________
conv5_3 (Conv2D)                 (None, 18, 18, 512)   2359808     conv5_2[0][0]                    
____________________________________________________________________________________________________
pool5 (MaxPooling2D)             (None, 18, 18, 512)   0           conv5_3[0][0]                    
____________________________________________________________________________________________________
fc6 (Conv2D)                     (None, 18, 18, 1024)  4719616     pool5[0][0]                      
____________________________________________________________________________________________________
fc7 (Conv2D)                     (None, 18, 18, 1024)  1049600     fc6[0][0]                        
____________________________________________________________________________________________________
conv6_1 (Conv2D)                 (None, 18, 18, 256)   262400      fc7[0][0]                        
____________________________________________________________________________________________________
conv6_2 (Conv2D)                 (None, 9, 9, 512)     1180160     conv6_1[0][0]                    
____________________________________________________________________________________________________
conv7_1 (Conv2D)                 (None, 9, 9, 128)     65664       conv6_2[0][0]                    
____________________________________________________________________________________________________
conv7_2 (Conv2D)                 (None, 5, 5, 256)     295168      conv7_1[0][0]                    
____________________________________________________________________________________________________
conv8_1 (Conv2D)                 (None, 5, 5, 128)     32896       conv7_2[0][0]                    
____________________________________________________________________________________________________
conv8_2 (Conv2D)                 (None, 3, 3, 256)     295168      conv8_1[0][0]                    
____________________________________________________________________________________________________
conv9_1 (Conv2D)                 (None, 3, 3, 128)     32896       conv8_2[0][0]                    
____________________________________________________________________________________________________
conv4_3_norm (L2Normalization)   (None, 37, 37, 512)   512         conv4_3[0][0]                    
____________________________________________________________________________________________________
conv9_2 (Conv2D)                 (None, 1, 1, 256)     295168      conv9_1[0][0]                    
____________________________________________________________________________________________________
conv4_3_norm_mbox_conf (Conv2D)  (None, 37, 37, 84)    387156      conv4_3_norm[0][0]               
____________________________________________________________________________________________________
fc7_mbox_conf (Conv2D)           (None, 18, 18, 126)   1161342     fc7[0][0]                        
____________________________________________________________________________________________________
conv6_2_mbox_conf (Conv2D)       (None, 9, 9, 126)     580734      conv6_2[0][0]                    
____________________________________________________________________________________________________
conv7_2_mbox_conf (Conv2D)       (None, 5, 5, 126)     290430      conv7_2[0][0]                    
____________________________________________________________________________________________________
conv8_2_mbox_conf (Conv2D)       (None, 3, 3, 84)      193620      conv8_2[0][0]                    
____________________________________________________________________________________________________
conv9_2_mbox_conf (Conv2D)       (None, 1, 1, 84)      193620      conv9_2[0][0]                    
____________________________________________________________________________________________________
conv4_3_norm_mbox_loc (Conv2D)   (None, 37, 37, 16)    73744       conv4_3_norm[0][0]               
____________________________________________________________________________________________________
fc7_mbox_loc (Conv2D)            (None, 18, 18, 24)    221208      fc7[0][0]                        
____________________________________________________________________________________________________
conv6_2_mbox_loc (Conv2D)        (None, 9, 9, 24)      110616      conv6_2[0][0]                    
____________________________________________________________________________________________________
conv7_2_mbox_loc (Conv2D)        (None, 5, 5, 24)      55320       conv7_2[0][0]                    
____________________________________________________________________________________________________
conv8_2_mbox_loc (Conv2D)        (None, 3, 3, 16)      36880       conv8_2[0][0]                    
____________________________________________________________________________________________________
conv9_2_mbox_loc (Conv2D)        (None, 1, 1, 16)      36880       conv9_2[0][0]                    
____________________________________________________________________________________________________
conv4_3_norm_mbox_conf_reshape ( (None, 5476, 21)      0           conv4_3_norm_mbox_conf[0][0]     
____________________________________________________________________________________________________
fc7_mbox_conf_reshape (Reshape)  (None, 1944, 21)      0           fc7_mbox_conf[0][0]              
____________________________________________________________________________________________________
conv6_2_mbox_conf_reshape (Resha (None, 486, 21)       0           conv6_2_mbox_conf[0][0]          
____________________________________________________________________________________________________
conv7_2_mbox_conf_reshape (Resha (None, 150, 21)       0           conv7_2_mbox_conf[0][0]          
____________________________________________________________________________________________________
conv8_2_mbox_conf_reshape (Resha (None, 36, 21)        0           conv8_2_mbox_conf[0][0]          
____________________________________________________________________________________________________
conv9_2_mbox_conf_reshape (Resha (None, 4, 21)         0           conv9_2_mbox_conf[0][0]          
____________________________________________________________________________________________________
conv4_3_norm_mbox_priorbox (Anch (None, 37, 37, 4, 8)  0           conv4_3_norm_mbox_loc[0][0]      
____________________________________________________________________________________________________
fc7_mbox_priorbox (AnchorBoxes)  (None, 18, 18, 6, 8)  0           fc7_mbox_loc[0][0]               
____________________________________________________________________________________________________
conv6_2_mbox_priorbox (AnchorBox (None, 9, 9, 6, 8)    0           conv6_2_mbox_loc[0][0]           
____________________________________________________________________________________________________
conv7_2_mbox_priorbox (AnchorBox (None, 5, 5, 6, 8)    0           conv7_2_mbox_loc[0][0]           
____________________________________________________________________________________________________
conv8_2_mbox_priorbox (AnchorBox (None, 3, 3, 4, 8)    0           conv8_2_mbox_loc[0][0]           
____________________________________________________________________________________________________
conv9_2_mbox_priorbox (AnchorBox (None, 1, 1, 4, 8)    0           conv9_2_mbox_loc[0][0]           
____________________________________________________________________________________________________
mbox_conf (Concatenate)          (None, 8096, 21)      0           conv4_3_norm_mbox_conf_reshape[0]
                                                                   fc7_mbox_conf_reshape[0][0]      
                                                                   conv6_2_mbox_conf_reshape[0][0]  
                                                                   conv7_2_mbox_conf_reshape[0][0]  
                                                                   conv8_2_mbox_conf_reshape[0][0]  
                                                                   conv9_2_mbox_conf_reshape[0][0]  
____________________________________________________________________________________________________
conv4_3_norm_mbox_loc_reshape (R (None, 5476, 4)       0           conv4_3_norm_mbox_loc[0][0]      
____________________________________________________________________________________________________
fc7_mbox_loc_reshape (Reshape)   (None, 1944, 4)       0           fc7_mbox_loc[0][0]               
____________________________________________________________________________________________________
conv6_2_mbox_loc_reshape (Reshap (None, 486, 4)        0           conv6_2_mbox_loc[0][0]           
____________________________________________________________________________________________________
conv7_2_mbox_loc_reshape (Reshap (None, 150, 4)        0           conv7_2_mbox_loc[0][0]           
____________________________________________________________________________________________________
conv8_2_mbox_loc_reshape (Reshap (None, 36, 4)         0           conv8_2_mbox_loc[0][0]           
____________________________________________________________________________________________________
conv9_2_mbox_loc_reshape (Reshap (None, 4, 4)          0           conv9_2_mbox_loc[0][0]           
____________________________________________________________________________________________________
conv4_3_norm_mbox_priorbox_resha (None, 5476, 8)       0           conv4_3_norm_mbox_priorbox[0][0] 
____________________________________________________________________________________________________
fc7_mbox_priorbox_reshape (Resha (None, 1944, 8)       0           fc7_mbox_priorbox[0][0]          
____________________________________________________________________________________________________
conv6_2_mbox_priorbox_reshape (R (None, 486, 8)        0           conv6_2_mbox_priorbox[0][0]      
____________________________________________________________________________________________________
conv7_2_mbox_priorbox_reshape (R (None, 150, 8)        0           conv7_2_mbox_priorbox[0][0]      
____________________________________________________________________________________________________
conv8_2_mbox_priorbox_reshape (R (None, 36, 8)         0           conv8_2_mbox_priorbox[0][0]      
____________________________________________________________________________________________________
conv9_2_mbox_priorbox_reshape (R (None, 4, 8)          0           conv9_2_mbox_priorbox[0][0]      
____________________________________________________________________________________________________
mbox_conf_softmax (Activation)   (None, 8096, 21)      0           mbox_conf[0][0]                  
____________________________________________________________________________________________________
mbox_loc (Concatenate)           (None, 8096, 4)       0           conv4_3_norm_mbox_loc_reshape[0][
                                                                   fc7_mbox_loc_reshape[0][0]       
                                                                   conv6_2_mbox_loc_reshape[0][0]   
                                                                   conv7_2_mbox_loc_reshape[0][0]   
                                                                   conv8_2_mbox_loc_reshape[0][0]   
                                                                   conv9_2_mbox_loc_reshape[0][0]   
____________________________________________________________________________________________________
mbox_priorbox (Concatenate)      (None, 8096, 8)       0           conv4_3_norm_mbox_priorbox_reshap
                                                                   fc7_mbox_priorbox_reshape[0][0]  
                                                                   conv6_2_mbox_priorbox_reshape[0][
                                                                   conv7_2_mbox_priorbox_reshape[0][
                                                                   conv8_2_mbox_priorbox_reshape[0][
                                                                   conv9_2_mbox_priorbox_reshape[0][
____________________________________________________________________________________________________
predictions (Concatenate)        (None, 8096, 33)      0           mbox_conf_softmax[0][0]          
                                                                   mbox_loc[0][0]                   
                                                                   mbox_priorbox[0][0]              
====================================================================================================
Total params: 26,285,486
Trainable params: 26,285,486
…
